…
	[1;34mOrdering[0m: {'strategy': 'by', 'field': 'timestamp', 'ascending': True}
	[1;34mSplitting[0m: {'strategy': 'loo', 'leave_one_num': 2}
	[1;34mNegative Sampling[0m: {'strategy': 'full', 'distribution': 'uniform'}
Thu 12 Jun 2025 15:28:57 INFO  [1;35m[evaluation][0m[1;36m batch_size[0m = [1;33m[256][0m, [1;36mshuffle[0m = [1;33m[False]
[0m
Thu 12 Jun 2025 15:28:58 INFO  加载预训练模型: ./log/RaSeRec/Amazon_Beauty/bs1024-lmd0.1-sem0.1-us_x-Mar-30-2025_17-18-35-lr0.001-l20-tau1-dot-DPh0.5-DPa0.5/model.pth
Thu 12 Jun 2025 15:28:58 INFO  初始化RaSeRec模型的知识库...
Thu 12 Jun 2025 15:29:03 INFO  RaSeRec(
  (item_embedding): Embedding(12102, 64, padding_idx=0)
  (position_embedding): Embedding(50, 64)
  (trm_encoder): TransformerEncoder(
    (layer): ModuleList(
      (0-1): 2 x TransformerLayer(
        (multi_head_attention): MultiHeadAttention(
          (query): Linear(in_features=64, out_features=64, bias=True)
          (key): Linear(in_features=64, out_features=64, bias=True)
          (value): Linear(in_features=64, out_features=64, bias=True)
          (attn_dropout): Dropout(p=0.5, inplace=False)
          (dense): Linear(in_features=64, out_features=64, bias=True)
          (LayerNorm): LayerNorm((64,), eps=1e-12, elementwise_affine=True)
          (out_dropout): Dropout(p=0.5, inplace=False)
        )
        (feed_forward): FeedForward(
          (dense_1): Linear(in_features=64, out_features=256, bias=True)
          (dense_2): Linear(in_features=256, out_features=64, bias=True)
          (LayerNorm): LayerNorm((64,), eps=1e-12, elementwise_affine=True)
          (dropout): Dropout(p=0.5, inplace=False)
        )
      )
    )
  )
  (retriever_mlp): ModuleList(
    (0): Linear(in_features=64, out_features=64, bias=True)
  )
  (retriever_layer_norms): ModuleList(
    (0): LayerNorm((64,), eps=1e-12, elementwise_affine=True)
  )
  (retriever_act_fn): GELU(approximate='none')
  (retriever_dropout_layer): Dropout(p=0.1, inplace=False)
  (LayerNorm): LayerNorm((64,), eps=1e-12, elementwise_affine=True)
  (dropout): Dropout(p=0.5, inplace=False)
  (loss_fct): CrossEntropyLoss()
  (aug_nce_fct): CrossEntropyLoss()
  (sem_aug_nce_fct): CrossEntropyLoss()
  (seq_tar_ram): CrossMultiHeadAttention(
    (query): Linear(in_features=64, out_features=64, bias=True)
    (key): Linear(in_features=64, out_features=64, bias=True)
    (value): Linear(in_features=64, out_features=64, bias=True)
    (attn_dropout): Dropout(p=0.5, inplace=False)
    (dense): Linear(in_features=64, out_features=64, bias=True)
    (LayerNorm): LayerNorm((64,), eps=1e-12, elementwise_affine=True)
    (out_dropout): Dropout(p=0.5, inplace=False)
  )
  (seq_tar_ram_1): CrossMultiHeadAttention(
    (query): Linear(in_features=64, out_features=64, bias=True)
    (key): Linear(in_features=64, out_features=64, bias=True)
    (value): Linear(in_features=64, out_features=64, bias=True)
    (attn_dropout): Dropout(p=0.5, inplace=False)
    (dense): Linear(in_features=64, out_features=64, bias=True)
    (LayerNorm): LayerNorm((64,), eps=1e-12, elementwise_affine=True)
    (out_dropout): Dropout(p=0.5, inplace=False)
  )
  (seq_tar_ram_fnn): FeedForward(
    (dense_1): Linear(in_features=64, out_features=256, bias=True)
    (dense_2): Linear(in_features=256, out_features=64, bias=True)
    (LayerNorm): LayerNorm((64,), eps=1e-12, elementwise_affine=True)
    (dropout): Dropout(p=0.5, inplace=False)
  )
  (seq_tar_ram_position_embedding_retrieval): Embedding(10, 64)
)[1;34m
Trainable parameters[0m: 4288
Thu 12 Jun 2025 15:29:03 INFO  在训练前进行评估...
Thu 12 Jun 2025 15:29:05 INFO  [1;34m初始评估结果[0m: 0.1046
Thu 12 Jun 2025 15:29:05 INFO  [1;34m详细评估结果[0m: {'recall@5': 0.0717, 'recall@10': 0.1046, 'recall@20': 0.1456, 'recall@50': 0.215, 'ndcg@5': 0.0445, 'ndcg@10': 0.0551, 'ndcg@20': 0.0655, 'ndcg@50': 0.0793}
Thu 12 Jun 2025 15:29:07 INFO  [1;34m测试集评估结果[0m: {'recall@5': 0.0529, 'recall@10': 0.0804, 'recall@20': 0.1141, 'recall@50': 0.1746, 'ndcg@5': 0.0336, 'ndcg@10': 0.0425, 'ndcg@20': 0.051, 'ndcg@50': 0.0629}
…
