…
Fri 13 Jun 2025 23:08:15 INFO  [1;35mBuild[0m[1;33m [SequentialFullDataLoader][0m for [1;33m[evaluation][0m with format [1;33m[InputType.POINTWISE][0m
Fri 13 Jun 2025 23:08:15 INFO  [1;35mEvaluation Setting:[0m
	[1;34mGroup by[0m user_id
	[1;34mOrdering[0m: {'strategy': 'by', 'field': 'timestamp', 'ascending': True}
	[1;34mSplitting[0m: {'strategy': 'loo', 'leave_one_num': 2}
	[1;34mNegative Sampling[0m: {'strategy': 'full', 'distribution': 'uniform'}
Fri 13 Jun 2025 23:08:15 INFO  [1;35m[evaluation][0m[1;36m batch_size[0m = [1;33m[256][0m, [1;36mshuffle[0m = [1;33m[False]
[0m
Fri 13 Jun 2025 23:08:16 INFO  初始化RaSeRec模型的知识库...
Fri 13 Jun 2025 23:08:26 INFO  RaSeRec(
  (item_embedding): Embedding(12102, 64, padding_idx=0)
  (position_embedding): Embedding(50, 64)
  (trm_encoder): TransformerEncoder(
    (layer): ModuleList(
      (0-1): 2 x TransformerLayer(
        (multi_head_attention): MultiHeadAttention(
          (query): Linear(in_features=64, out_features=64, bias=True)
          (key): Linear(in_features=64, out_features=64, bias=True)
          (value): Linear(in_features=64, out_features=64, bias=True)
          (attn_dropout): Dropout(p=0.5, inplace=False)
          (dense): Linear(in_features=64, out_features=64, bias=True)
          (LayerNorm): LayerNorm((64,), eps=1e-12, elementwise_affine=True)
          (out_dropout): Dropout(p=0.5, inplace=False)
        )
        (feed_forward): FeedForward(
          (dense_1): Linear(in_features=64, out_features=256, bias=True)
          (dense_2): Linear(in_features=256, out_features=64, bias=True)
          (LayerNorm): LayerNorm((64,), eps=1e-12, elementwise_affine=True)
          (dropout): Dropout(p=0.5, inplace=False)
        )
      )
    )
  )
  (retriever_mlp): ModuleList(
    (0): Linear(in_features=64, out_features=64, bias=True)
  )
  (retriever_layer_norms): ModuleList(
    (0): LayerNorm((64,), eps=1e-12, elementwise_affine=True)
  )
  (retriever_act_fn): GELU(approximate='none')
  (retriever_dropout_layer): Dropout(p=0.1, inplace=False)
  (LayerNorm): LayerNorm((64,), eps=1e-12, elementwise_affine=True)
  (dropout): Dropout(p=0.5, inplace=False)
  (loss_fct): CrossEntropyLoss()
)[1;34m
Trainable parameters[0m: 4288
Fri 13 Jun 2025 23:08:27 INFO  在训练前进行评估...
Fri 13 Jun 2025 23:08:28 INFO  [1;34m初始评估结果[0m: 0.1028
Fri 13 Jun 2025 23:08:28 INFO  [1;34m详细评估结果[0m: {'recall@5': 0.0695, 'recall@10': 0.1028, 'recall@20': 0.1447, 'recall@50': 0.2169, 'ndcg@5': 0.0446, 'ndcg@10': 0.0554, 'ndcg@20': 0.0659, 'ndcg@50': 0.0802}
…
