…
Thu 20 Mar 2025 13:35:19 INFO  [1;35mBuild[0m[1;33m [SequentialFullDataLoader][0m for [1;33m[evaluation][0m with format [1;33m[InputType.POINTWISE][0m
Thu 20 Mar 2025 13:35:19 INFO  [1;35mEvaluation Setting:[0m
	[1;34mGroup by[0m user_id
	[1;34mOrdering[0m: {'strategy': 'by', 'field': 'timestamp', 'ascending': True}
	[1;34mSplitting[0m: {'strategy': 'loo', 'leave_one_num': 2}
	[1;34mNegative Sampling[0m: {'strategy': 'full', 'distribution': 'uniform'}
Thu 20 Mar 2025 13:35:19 INFO  [1;35m[evaluation][0m[1;36m batch_size[0m = [1;33m[256][0m, [1;36mshuffle[0m = [1;33m[False]
[0m
Thu 20 Mar 2025 13:35:27 INFO  RaSeRec(
  (item_embedding): Embedding(18358, 64, padding_idx=0)
  (position_embedding): Embedding(50, 64)
  (trm_encoder): TransformerEncoder(
    (layer): ModuleList(
      (0-1): 2 x TransformerLayer(
        (multi_head_attention): MultiHeadAttention(
          (query): Linear(in_features=64, out_features=64, bias=True)
          (key): Linear(in_features=64, out_features=64, bias=True)
          (value): Linear(in_features=64, out_features=64, bias=True)
          (attn_dropout): Dropout(p=0.0, inplace=False)
          (dense): Linear(in_features=64, out_features=64, bias=True)
          (LayerNorm): LayerNorm((64,), eps=1e-12, elementwise_affine=True)
          (out_dropout): Dropout(p=0.0, inplace=False)
        )
        (feed_forward): FeedForward(
          (dense_1): Linear(in_features=64, out_features=256, bias=True)
          (dense_2): Linear(in_features=256, out_features=64, bias=True)
          (LayerNorm): LayerNorm((64,), eps=1e-12, elementwise_affine=True)
          (dropout): Dropout(p=0.0, inplace=False)
        )
      )
    )
  )
  (LayerNorm): LayerNorm((64,), eps=1e-12, elementwise_affine=True)
  (dropout): Dropout(p=0.0, inplace=False)
  (loss_fct): CrossEntropyLoss()
  (aug_nce_fct): CrossEntropyLoss()
  (sem_aug_nce_fct): CrossEntropyLoss()
  (seq_tar_ram): CrossMultiHeadAttention(
    (query): Linear(in_features=64, out_features=64, bias=True)
    (key): Linear(in_features=64, out_features=64, bias=True)
    (value): Linear(in_features=64, out_features=64, bias=True)
    (attn_dropout): Dropout(p=0.5, inplace=False)
    (dense): Linear(in_features=64, out_features=64, bias=True)
    (LayerNorm): LayerNorm((64,), eps=1e-12, elementwise_affine=True)
    (out_dropout): Dropout(p=0.5, inplace=False)
  )
  (seq_tar_ram_1): CrossMultiHeadAttention(
    (query): Linear(in_features=64, out_features=64, bias=True)
    (key): Linear(in_features=64, out_features=64, bias=True)
    (value): Linear(in_features=64, out_features=64, bias=True)
    (attn_dropout): Dropout(p=0.5, inplace=False)
    (dense): Linear(in_features=64, out_features=64, bias=True)
    (LayerNorm): LayerNorm((64,), eps=1e-12, elementwise_affine=True)
    (out_dropout): Dropout(p=0.5, inplace=False)
  )
  (seq_tar_ram_fnn): FeedForward(
    (dense_1): Linear(in_features=64, out_features=256, bias=True)
    (dense_2): Linear(in_features=256, out_features=64, bias=True)
    (LayerNorm): LayerNorm((64,), eps=1e-12, elementwise_affine=True)
    (dropout): Dropout(p=0.5, inplace=False)
  )
  (tar_seq_ram): CrossMultiHeadAttention(
    (query): Linear(in_features=64, out_features=64, bias=True)
    (key): Linear(in_features=64, out_features=64, bias=True)
    (value): Linear(in_features=64, out_features=64, bias=True)
    (attn_dropout): Dropout(p=0.5, inplace=False)
    (dense): Linear(in_features=64, out_features=64, bias=True)
    (LayerNorm): LayerNorm((64,), eps=1e-12, elementwise_affine=True)
    (out_dropout): Dropout(p=0.5, inplace=False)
  )
  (tar_seq_ram_1): CrossMultiHeadAttention(
    (query): Linear(in_features=64, out_features=64, bias=True)
    (key): Linear(in_features=64, out_features=64, bias=True)
    (value): Linear(in_features=64, out_features=64, bias=True)
    (attn_dropout): Dropout(p=0.5, inplace=False)
    (dense): Linear(in_features=64, out_features=64, bias=True)
    (LayerNorm): LayerNorm((64,), eps=1e-12, elementwise_affine=True)
    (out_dropout): Dropout(p=0.5, inplace=False)
  )
  (tar_seq_ram_fnn): FeedForward(
    (dense_1): Linear(in_features=64, out_features=256, bias=True)
    (dense_2): Linear(in_features=256, out_features=64, bias=True)
    (LayerNorm): LayerNorm((64,), eps=1e-12, elementwise_affine=True)
    (dropout): Dropout(p=0.5, inplace=False)
  )
  (seq_tar_ram_position_embedding_retrieval): Embedding(10, 64)
  (tar_seq_ram_position_embedding_retrieval): Embedding(10, 64)
)[1;34m
Trainable parameters[0m: 134784
Thu 20 Mar 2025 13:35:46 INFO  [1;32mepoch 0 training[0m [[1;34mtime[0m: 19.05s, [1;34mtrain loss[0m: 1445.0956]
Thu 20 Mar 2025 13:35:50 INFO  [1;32mepoch 0 evaluating[0m [[1;34mtime[0m: 3.06s, [1;34mvalid_score[0m: 0.138300]
Thu 20 Mar 2025 13:35:50 INFO  [1;34mvalid result[0m: 
hit@5 : 0.039    hit@10 : 0.059    hit@20 : 0.0846    hit@50 : 0.1383    ndcg@5 : 0.0253    ndcg@10 : 0.0318    ndcg@20 : 0.0382    ndcg@50 : 0.0488    
…
