…
Sun 30 Mar 2025 16:56:08 INFO  [1;35mBuild[0m[1;33m [SequentialFullDataLoader][0m for [1;33m[evaluation][0m with format [1;33m[InputType.POINTWISE][0m
Sun 30 Mar 2025 16:56:08 INFO  [1;35mEvaluation Setting:[0m
	[1;34mGroup by[0m user_id
	[1;34mOrdering[0m: {'strategy': 'by', 'field': 'timestamp', 'ascending': True}
	[1;34mSplitting[0m: {'strategy': 'loo', 'leave_one_num': 2}
	[1;34mNegative Sampling[0m: {'strategy': 'full', 'distribution': 'uniform'}
Sun 30 Mar 2025 16:56:08 INFO  [1;35m[evaluation][0m[1;36m batch_size[0m = [1;33m[256][0m, [1;36mshuffle[0m = [1;33m[False]
[0m
Sun 30 Mar 2025 16:56:09 INFO  DuoRec(
  (item_embedding): Embedding(12102, 64, padding_idx=0)
  (position_embedding): Embedding(50, 64)
  (trm_encoder): TransformerEncoder(
    (layer): ModuleList(
      (0-1): 2 x TransformerLayer(
        (multi_head_attention): MultiHeadAttention(
          (query): Linear(in_features=64, out_features=64, bias=True)
          (key): Linear(in_features=64, out_features=64, bias=True)
          (value): Linear(in_features=64, out_features=64, bias=True)
          (attn_dropout): Dropout(p=0.5, inplace=False)
          (dense): Linear(in_features=64, out_features=64, bias=True)
          (LayerNorm): LayerNorm((64,), eps=1e-12, elementwise_affine=True)
          (out_dropout): Dropout(p=0.5, inplace=False)
        )
        (feed_forward): FeedForward(
          (dense_1): Linear(in_features=64, out_features=256, bias=True)
          (dense_2): Linear(in_features=256, out_features=64, bias=True)
          (LayerNorm): LayerNorm((64,), eps=1e-12, elementwise_affine=True)
          (dropout): Dropout(p=0.5, inplace=False)
        )
      )
    )
  )
  (LayerNorm): LayerNorm((64,), eps=1e-12, elementwise_affine=True)
  (dropout): Dropout(p=0.5, inplace=False)
  (loss_fct): CrossEntropyLoss()
  (aug_nce_fct): CrossEntropyLoss()
  (sem_aug_nce_fct): CrossEntropyLoss()
)[1;34m
Trainable parameters[0m: 877824
Sun 30 Mar 2025 16:56:42 INFO  [1;32mepoch 0 training[0m [[1;34mtime[0m: 32.19s, [1;34mtrain loss[0m: 939.0962]
Sun 30 Mar 2025 16:56:43 INFO  [1;32mepoch 0 evaluating[0m [[1;34mtime[0m: 0.79s, [1;34mvalid_score[0m: 0.039800]
…
